flask-chatbot/data.pth (torch, 5015 bytes, 6 tensors)

l1.weight f4 [8, 54]
0	0xbe6acc4f	-0.229295
1	0x3edb0e92	0.42784554
2	0xbea0fc90	-0.3144269
3	0x3ea735e8	0.32658315
4	0x3e3f13f6	0.18659958
5	0xbe06f6fd	-0.13180156
6	0xbe33361d	-0.17501111
7	0xbec6a44c	-0.38797224
8	0xbe997bbe	-0.2997722
9	0xbea4152b	-0.320474
10	0x3e73d308	0.23810971
11	0x3f1387f9	0.5762935
12	0x3e035816	0.12826571
13	0x3f047335	0.5173829
14	0x3e965b92	0.29366738
15	0x3f0ad1a4	0.54226136
16	0x3eaf8822	0.3428355
17	0xbe8b3b65	-0.27193752
18	0xbd652a4c	-0.05594854
19	0x3f01a34b	0.5063979
20	0x3c8c4334	0.017121889
21	0x3ea744f2	0.3266979
22	0x3e76d97a	0.24106398
23	0x3f3135a4	0.69222474
24	0x3eaee1d1	0.3415666
25	0x3eb9e102	0.3630448
26	0xbe478ff7	-0.19488512
27	0x3f0ce6df	0.5503978
28	0xbe2ec83c	-0.17068571
29	0x3ecc8a9d	0.39949504
30	0xbde11d30	-0.10991895
31	0x3f340929	0.7032648
32	0xbdea8726	-0.11451559
33	0xbea395b9	-0.31950167
34	0x3ebcca44	0.36873066
35	0x3ea73582	0.3265801
36	0xbd859635	-0.0652279
37	0xbec8daea	-0.39229518
38	0xbe858bb8	-0.2608316
39	0xbe47e6e7	-0.19521676
40	0xbe53b168	-0.20673144
41	0xbe53b6b5	-0.20675166
42	0x3ecec2d2	0.4038301
43	0x3eaf8190	0.34278536
44	0x3e7b92c8	0.24567711
45	0x3ef7a256	0.4836604
46	0xbf0ea412	-0.557191
47	0xbe3c4d27	-0.18388806
48	0x3e9259bb	0.28584084
49	0xbe15d6b6	-0.14632687
50	0x3ef36df7	0.47544834
51	0xbde4f71f	-0.11179947
52	0xbe8917eb	-0.2677606
53	0xbd54443f	-0.051822897
54	0xbe1f186d	-0.15536661
55	0xbded3bfb	-0.11583706
56	0x3eb394ec	0.35074556
57	0x3ebe9cda	0.37229043
58	0x3e834259	0.25636557
59	0xbee89399	-0.45425108
60	0xbceaf604	-0.028681763
61	0x3d2e153f	0.04250073
62	0x3da2a1c4	0.079410106
63	0xbddd5019	-0.10806293
64	0x3edc7b5e	0.43062872
65	0x3eee15c8	0.46500993
66	0x3dc46b61	0.095907934
67	0x3eba71d7	0.36414978
68	0xbdc1f6a7	-0.09470873
69	0x3ec071c9	0.3758681
70	0x3f01ca98	0.5069976
71	0xbee8b7a3	-0.45452604
72	0xbe451225	-0.19245203
73	0x3f28c3a7	0.6592354
74	0xbe09d90c	-0.13461703
75	0x3f1e4b8b	0.6183402
76	0x3f4255e7	0.75912327
77	0x3f2cb675	0.6746591
78	0x3e892892	0.26788765
79	0x3ec1ace1	0.3782721
80	0xbe5370fc	-0.20648569
81	0xbe014fa8	-0.12628043
82	0xbdc2cf79	-0.095122285
83	0xbdfb0543	-0.12256863
84	0xbe0c6ce4	-0.13713413
85	0x3e98e7d1	0.29864362
86	0x3c61f6e9	0.013791778
87	0x3f0a1a54	0.53946424
88	0xbd769ef0	-0.06021017
89	0x3e92b7b6	0.28655785
90	0xbe73939f	-0.23786782
91	0xbd0f08fa	-0.03492067
92	0x3982681c	0.000248731
93	0xbdb89b48	-0.090139925
94	0xbe8ff7e1	-0.28118804
95	0xbe04fccc	-0.1298706
96	0x3edd7699	0.43254545
97	0xbde72184	-0.112856895
98	0x3ed28d98	0.41123652
99	0xbe3efce9	-0.18651165
100	0xbee04c77	-0.43808338
101	0xbe029deb	-0.12755553
102	0x3e1cfc20	0.15330553
103	0xbea6552c	-0.32486856
104	0x3ef251a6	0.47327918
105	0xbcb58759	-0.022159265
106	0x3d50e15a	0.050996162
107	0xbd0270d9	-0.0318459
108	0x3e30c660	0.17263174
109	0xbe999ee5	-0.3000404
110	0x3e91b8dd	0.28461352
111	0x3e6d3e4f	0.231683
112	0x3e725f72	0.23669222
113	0x3f28ed39	0.65986973
114	0x3ed1c58a	0.40971023
115	0x3ecbb5df	0.39787194
116	0x3ec0477a	0.37554532
117	0x3e6d00bb	0.2314481
118	0x3e24f196	0.16107783
119	0xbea39e23	-0.31956586
120	0xbe66828b	-0.22510736
121	0xbedea4f1	-0.43485215
122	0xbdee53b4	-0.11637059
123	0xbe7e6d5d	-0.24846406
124	0x3e9c1d8f	0.304913
125	0x3f18d9fd	0.59707624
126	0xbe99573c	-0.29949367
127	0x3ecba7de	0.3977651
128	0xbdc93f41	-0.09826518
129	0x3ea2cdbd	0.3179759
130	0x3f02b488	0.5105672
131	0x3ea96743	0.33086595
132	0x3e9345d6	0.28764218
133	0x3e93de4e	0.28880543
134	0xbea28a64	-0.3174621
135	0xbe07a7e0	-0.13247633
136	0xbe6de2f4	-0.23231107
137	0xbdfc8dd8	-0.12331742
138	0x3eb14b07	0.34627554
139	0xbef40389	-0.47658947
140	0x3e3128a9	0.17300667
141	0x3ec6fcb6	0.38864678
142	0xbe425afc	-0.1898002
143	0xbe5ab031	-0.21356274
144	0xbe7eb987	-0.2487546
145	0x3e84d63b	0.25944695
146	0x3ea1a3a7	0.3157017
147	0x3e7fe5d3	0.24990015
148	0x3ec30ca5	0.38095585
149	0xbedb23f0	-0.42800856
150	0xbea38579	-0.3193777
151	0x3c9fd57e	0.01951098
152	0x3d16ddd4	0.036832646
153	0xbe76a1ff	-0.24085234
154	0xbe1cb6d3	-0.15304117
155	0x3d266a66	0.040628813
156	0x3e3ba383	0.18324094
157	0xbeee0340	-0.46486855
158	0xbe141fe7	-0.14465295
159	0xbe8daa21	-0.2766886
160	0x3eadffd7	0.33984253
161	0x3e828e29	0.25499085
162	0x3f1cd0c2	0.6125604
163	0x3eec5c7b	0.46164307
164	0x3e497ec4	0.19677263
165	0xbe9fb1e3	-0.31190404
166	0x3dc8071b	0.0976698
167	0xbe707ce0	-0.23485136
168	0x3eb4d3ed	0.35317937
169	0x3e0cea8e	0.1376135
170	0x3e734a95	0.2375892
171	0x3d95d30c	0.073156446
172	0xbe9715a8	-0.2950871
173	0x3e970079	0.29492548
174	0x3eebc860	0.46051311
175	0x3f02185e	0.5081843
176	0x3ecf8e81	0.4053841
177	0x3e84790e	0.25873607
178	0xbe82adce	-0.25523227
179	0xbe97fc38	-0.29684615
180	0x3e393d97	0.18089901
181	0xbea35f2c	-0.31908548
182	0x3f0afa71	0.54288393
183	0xbec963e2	-0.39334017
184	0xbea7b5cf	-0.32755896
185	0xbe541aa8	-0.20713294
186	0x3e87be95	0.2651259
187	0xbe2ff177	-0.17181955
188	0x3ee8df36	0.45482796
189	0x3ed24643	0.4106923
190	0x3e8284d0	0.25491953
191	0x3e781ffe	0.24230954
192	0xbe9ac639	-0.30229357
193	0x3f023d01	0.50874335
194	0x3ec7711f	0.38953492
195	0x3e8fcfad	0.28088132
196	0x3efaf2bd	0.4901332
197	0x3d937316	0.07199685
198	0x3e6c4c93	0.23076086
199	0x3e4eae29	0.20183624
200	0x3e2de0fd	0.16980357
201	0x3e99140e	0.29898113
202	0xbe81498c	-0.25251424
203	0x3e51aedb	0.20476858
204	0x3e6dc135	0.23218234
205	0x3e8f65a4	0.28007233
206	0x3ede0cca	0.43369132
207	0x3f1a8dd4	0.6037266
208	0x3f6f5bea	0.93499625
209	0x3ef85c64	0.48507988
210	0x3e0a6f1f	0.13518952
211	0x3ec1f129	0.37879303
212	0x3d895623	0.067058824
213	0x3e745db5	0.23863871
214	0x3dd4bb72	0.10387315
215	0x3ed7c036	0.42138833
216	0xbcb29ce4	-0.021803327
217	0x3eaafd59	0.33396414
218	0x3ed6c1c6	0.41944712
219	0xbe317a0c	-0.17331713
220	0x3dfee4ad	0.1244596
221	0xbe443e13	-0.19164304
222	0x3ed4d177	0.4156606
223	0x3eaa6999	0.3328369
224	0x3ef4c9c8	0.47810197
225	0x3e62c40e	0.22145101
226	0xbd4ff1e8	-0.05076781
227	0x3e3fe404	0.18739325
228	0x3f4749e6	0.77847135
229	0x3ec9232b	0.39284644
230	0x3f1883c0	0.59576035
231	0x3d165ca8	0.036709458
232	0xbe10426a	-0.14087835
233	0xbe44191b	-0.19150202
234	0x3eae7bb0	0.3407874
235	0xbe445ae1	-0.19175293
236	0xbd5365d7	-0.051610794
237	0xbe443364	-0.19160229
238	0xbe445c1f	-0.19175766
239	0xbebddeac	-0.37083948
240	0x3e9d3f4d	0.30712357
241	0xbe9cd223	-0.30629072
242	0x3f17c880	0.59290314
243	0x3ef4bbea	0.47799617
244	0x3ef08f9b	0.46984562
245	0x3ebc3e6a	0.36766368
246	0xbe6aa4c3	-0.22914414
247	0x3e9d0660	0.30668926
248	0xbe35c041	-0.1774912
249	0x3ea7a089	0.32739666
250	0x3f30f123	0.69117945
251	0x3b256881	0.002523929
252	0x3e7dcf23	0.24786048
253	0x3eec5458	0.461581
254	0x3ea4f67f	0.32219312
255	0x3ef51df1	0.47874406

l1.bias f4 [8]
0	0x3f0eaa1d	0.5572832
1	0x3ee89d4f	0.45432517
2	0x3f5cfabc	0.8632009
3	0x3f0cef6b	0.5505282
4	0x3e442d94	0.19158012
5	0x3ead36dd	0.3383092
6	0x3f34963f	0.7054176
7	0x3f25740a	0.64630187

l2.weight f4 [8, 8]
0	0xbf287aa8	-0.6581216
1	0x3f4fb649	0.8113752
2	0x3f200a32	0.62515557
3	0xbd2545bb	-0.040349703
4	0x3e9661c3	0.2937146
5	0x3e102c5f	0.14079426
6	0xbebfbe41	-0.3744984
7	0x3fa64c00	1.2991943
8	0xbd8f3984	-0.06993392
9	0xbf520dee	-0.82052505
10	0x3f69a3ca	0.9126555
11	0x3f4813a6	0.7815498
12	0xbe1dd406	-0.15412912
13	0xbf2abac3	-0.66691226
14	0xbe2ed9a1	-0.17075206
15	0x3f0f1982	0.55898297
16	0x3fa04ee4	1.2524076
17	0x3f74969a	0.955423
18	0xbe907001	-0.28210452
19	0x3f51ffc9	0.8203092
20	0xbcdcf88f	-0.02697399
21	0xbf8127e4	-1.0090299
22	0x3e696cf3	0.22795467
23	0x3ecc973f	0.39959142
24	0x3f1bf042	0.6091348
25	0xbf091408	-0.5354619
26	0xbf60f637	-0.87875694
27	0x3f145bdf	0.57952684
28	0x3f30439a	0.6885315
29	0x3ea33827	0.31878778
30	0x3f14bbd9	0.5809913
31	0x3f331e8b	0.6996848
32	0x3f3226f4	0.6959069
33	0xbdb6735a	-0.0890872
34	0x3fae22d5	1.360438
35	0xbf704fa1	-0.93871504
36	0xbf5f335a	-0.8718773
37	0x3e664c52	0.22490051
38	0x3fa7a13b	1.3096079
39	0x3f720863	0.9454405
40	0xbf8424eb	-1.0323766
41	0xbcaf3e1c	-0.02139192
42	0x3f0e5514	0.5559857
43	0x3f85d0de	1.0454366
44	0x3e6bfd54	0.23045856
45	0xbe461447	-0.19343673
46	0xbf2d8aa6	-0.67789686
47	0x3e0180cd	0.1264679
48	0x3f0f7fbc	0.5605428
49	0x3fa87ea4	1.3163648
50	0x3f2b8355	0.6699727
51	0xbeb301d8	-0.34962344
52	0x3efd734f	0.49502036
53	0xbde4ed31	-0.11178053
54	0xbf06bbd4	-0.5263035
55	0x3f81704e	1.0112398
56	0xbeddc04c	-0.43310773
57	0xbf8e156a	-1.1100285
58	0x3ec8a74e	0.39190143
59	0x3f629814	0.885133
60	0x3f5f0375	0.8711465
61	0x3fa96a03	1.3235477
62	0x3f51e050	0.819829
63	0xbc2174c4	-0.009854499

l2.bias f4 [8]
0	0xbf084862	-0.5323545
1	0x3f50b562	0.8152677
2	0x3ead9c93	0.3390852
3	0xbe829331	-0.25502923
4	0x3f1bcfc8	0.60863924
5	0x3e910301	0.28322604
6	0xbdaa4a88	-0.08314997
7	0x3ef8ea63	0.48616323

l3.weight f4 [7, 8]
0	0xbfb82a2f	-1.4387873
1	0xbf71536d	-0.9426792
2	0x3f56a258	0.83841467
3	0xbe03e011	-0.12878443
4	0xbf5c8c93	-0.86152
5	0xbf7fdd1b	-0.99946755
6	0x3ef7d21f	0.48402497
7	0xbf65c096	-0.8974699
8	0xbf063c99	-0.52436215
9	0xbda5f190	-0.08102715
10	0x3e2cee0c	0.16887683
11	0x3f225212	0.6340648
12	0xbe871c2f	-0.2638869
13	0xbf8bdaf0	-1.092619
14	0xbe9f0d0f	-0.3106465
15	0xbe682db9	-0.22673692
16	0xbffe076e	-1.9846017
17	0x3e315af5	0.17319854
18	0xbf925719	-1.143283
19	0xbf9e87be	-1.2385175
20	0x3f68af4f	0.908925
21	0xbf94de57	-1.1630353
22	0xbe910c65	-0.2832977
23	0x3eb19744	0.3468572
24	0x3eae106c	0.33996904
25	0xbe92f90c	-0.28705633
26	0x3d5d8cc8	0.054089338
27	0xbf20387d	-0.62586194
28	0x3f29bd07	0.6630406
29	0xbf8ec2db	-1.1153215
30	0x3f0116ec	0.504256
31	0xbf931678	-1.1491232
32	0xbf8b4968	-1.0881777
33	0xbf99dc76	-1.2020404
34	0xbf3e582f	-0.7435331
35	0x3f286b74	0.6578896
36	0xbf653338	-0.8953128
37	0xbe29c662	-0.16579583
38	0xbf8a9df3	-1.0829452
39	0x3f01a725	0.5064567
40	0x3f2b6c95	0.6696256
41	0xbeaa31bf	-0.33241078
42	0xbfa8d3e5	-1.3189665
43	0xbe89bd0a	-0.26902038
44	0xbf1f9726	-0.6234001
45	0x3e99226a	0.29909068
46	0x3f03566d	0.5130375
47	0x3dd6b767	0.104842
48	0xbf86a3de	-1.0518758
49	0x3f5e496d	0.8683079
50	0x3e3e65cf	0.18593524
51	0xbf21be1e	-0.6318072
52	0xbf35dc8e	-0.71039665
53	0x3f5eb016	0.86987436
54	0xbfa5f6a8	-1.2965899
55	0x3c4106f2	0.011781441

l3.bias f4 [7]
0	0x3e25cfa7	0.16192494
1	0xbf2b287e	-0.6685866
2	0xbd1f1ef8	-0.038847893
3	0xbe15836c	-0.14600915
4	0xbd8c74e1	-0.068582304
5	0xbf2062aa	-0.6265055
6	0x3c189589	0.009312996
